Code/models/job_description_model.pth (torch, 984064 bytes, 7 tensors)

embedding.weight f4 [1986, 64]
0	0x00000000	0.0
1	0x00000000	0.0
2	0x00000000	0.0
3	0x00000000	0.0
4	0x00000000	0.0
5	0x00000000	0.0
6	0x00000000	0.0
7	0x00000000	0.0
8	0x00000000	0.0
9	0x00000000	0.0
10	0x00000000	0.0
11	0x00000000	0.0
12	0x00000000	0.0
13	0x00000000	0.0
14	0x00000000	0.0
15	0x00000000	0.0
16	0x00000000	0.0
17	0x00000000	0.0
18	0x00000000	0.0
19	0x00000000	0.0
20	0x00000000	0.0
21	0x00000000	0.0
22	0x00000000	0.0
23	0x00000000	0.0
24	0x00000000	0.0
25	0x00000000	0.0
26	0x00000000	0.0
27	0x00000000	0.0
28	0x00000000	0.0
29	0x00000000	0.0
30	0x00000000	0.0
31	0x00000000	0.0
32	0x00000000	0.0
33	0x00000000	0.0
34	0x00000000	0.0
35	0x00000000	0.0
36	0x00000000	0.0
37	0x00000000	0.0
38	0x00000000	0.0
39	0x00000000	0.0
40	0x00000000	0.0
41	0x00000000	0.0
42	0x00000000	0.0
43	0x00000000	0.0
44	0x00000000	0.0
45	0x00000000	0.0
46	0x00000000	0.0
47	0x00000000	0.0
48	0x00000000	0.0
49	0x00000000	0.0
50	0x00000000	0.0
51	0x00000000	0.0
52	0x00000000	0.0
53	0x00000000	0.0
54	0x00000000	0.0
55	0x00000000	0.0
56	0x00000000	0.0
57	0x00000000	0.0
58	0x00000000	0.0
59	0x00000000	0.0
60	0x00000000	0.0
61	0x00000000	0.0
62	0x00000000	0.0
63	0x00000000	0.0
64	0xbf1f9554	-0.6233723
65	0x3e8f052b	0.2793363
66	0xbff91f45	-1.9462668
67	0x4006d4df	2.1067426
68	0xbf707ffd	-0.93945295
69	0x3fc4311f	1.532749
70	0xbf9493bb	-1.1607584
71	0x3ee7ea59	0.4529598
72	0x3f7b575a	0.9818016
73	0x3f0a3234	0.53982854
74	0xbfaa83dc	-1.332149
75	0xbfd51886	-1.6648109
76	0xbd89ad7a	-0.06722541
77	0xbfb61e3e	-1.4227979
78	0x3f290ae8	0.66032267
79	0x3eb128b2	0.3460136
80	0xbfaa02f3	-1.328215
81	0x3ed63f8c	0.41845357
82	0x3f8ea795	1.1144892
83	0xbe7ec556	-0.24879965
84	0x3f1f27a8	0.62169886
85	0xc0163011	-2.3466837
86	0x3f601a13	0.87539786
87	0xc002e796	-2.045385
88	0x4004e20b	2.0762966
89	0x3f69d01e	0.91333187
90	0x3fba47a2	1.4553111
91	0xbf675029	-0.9035669
92	0xbee7c9e5	-0.4527122
93	0xbecab330	-0.39589834
94	0xbfd0c707	-1.6310738
95	0x401855cb	2.3802364
96	0x3f9fe381	1.2491304
97	0xc005fcb8	-2.0935497
98	0x40053282	2.0812078
99	0x3ca83f62	0.020538036
100	0x3fbecd3f	1.4906386
101	0x3f6d7f2e	0.92772186
102	0x402bbe1a	2.6834779
103	0x3ece924b	0.40345988
104	0x3f802ade	1.0013082
105	0xbfa9e487	-1.3272866
106	0x3f401b9a	0.75042117
107	0x3f0aaaf2	0.5416709
108	0x3fc6b201	1.5523072
109	0x3fdc80ca	1.7226803
110	0x4068ca71	3.637356
111	0x3fb094d1	1.3795415
112	0x3fa494bd	1.2857891
113	0x3f634221	0.8877278
114	0x40142165	2.3145382
115	0x3fdf5224	1.7446942
116	0x3e3be345	0.18348415
117	0x3f51a031	0.8188506
118	0xbf469eb5	-0.7758592
119	0x3d921411	0.071327336
120	0x3f734936	0.95033586
121	0xbfecce2b	-1.8500417
122	0xbe94ffd7	-0.2910144
123	0x3eedf79f	0.46477982
124	0x3f7e3f93	0.99315757
125	0x3e5dfaca	0.216777
126	0xbd2848ac	-0.04108493
127	0xbfb5438a	-1.4161236
128	0x3e061da4	0.13097245
129	0xbf3f3dcf	-0.7470369
130	0x3ea6565b	0.3248776
131	0xbe03bd77	-0.12865244
132	0xbfea0092	-1.8281424
133	0xbf58c4fc	-0.84675574
134	0x3f16e7dc	0.5894754
135	0xbf2dd905	-0.6790927
136	0xbf6a613f	-0.91554636
137	0xbf13a0c7	-0.576672
138	0xbebf5354	-0.37368262
139	0x3ec3b4e0	0.38223934
140	0xbf9b73b6	-1.2144687
141	0xc0089501	-2.1340945
142	0x3fc6065d	1.5470692
143	0xbed6adb2	-0.41929394
144	0xbf1f8b82	-0.6232225
145	0xbfd89460	-1.692028
146	0x4036a7f1	2.8540003
147	0xbec48a7b	-0.38386902
148	0xbf449104	-0.76783776
149	0xbf376759	-0.7164207
150	0x3f0345db	0.51278466
151	0xbfbf6351	-1.4952184
152	0x3f304a68	0.68863535
153	0x3f88c9a8	1.0686541
154	0x3ff4e1a3	1.9131359
155	0xbfb504e3	-1.4142116
156	0x3f76201a	0.96142733
157	0x3fc050b4	1.5024629
158	0xc00c5e6e	-2.1932635
159	0x3fd3ddb4	1.6552033
160	0xbf4fd151	-0.81178766
161	0xbf442d74	-0.76631856
162	0x3fa7dd41	1.3114396
163	0xbf29f851	-0.66394526
164	0xbf60e514	-0.87849545
165	0x3f9c65ca	1.2218564
166	0x3fba21d5	1.4541575
167	0x3fb9ec31	1.4525205
168	0x3fa14d68	1.2601748
169	0xc00f7b84	-2.2419138
170	0x3f46f83d	0.7772253
171	0x3f62bfdc	0.88574004
172	0x3ef034a8	0.46915174
173	0xbdfd8f73	-0.123808764
174	0x3ef37efa	0.47557813
175	0xbfc53f1f	-1.5409888
176	0x404349c2	3.0513768
177	0x3ea04efd	0.31310263
178	0x3f8c927e	1.0982206
179	0x3ee1a5c8	0.44071794
180	0x3f6ee507	0.9331822
181	0xbf91afdf	-1.1381797
182	0xbead181d	-0.3380746
183	0xc008d5ed	-2.138057
184	0xbfa09d07	-1.2547921
185	0xbfb9f89b	-1.4528993
186	0xbf7ff0b1	-0.9997664
187	0x3fae1a21	1.3601724
188	0xbfa56e02	-1.2924197
189	0x3f690663	0.9102537
190	0x3f216a9e	0.6305331
191	0x3f2a0bf5	0.66424495
192	0xbff1b5df	-1.8883628
193	0x3fc39efb	1.5282892
194	0xbfece43e	-1.8507154
195	0xbf82a8c2	-1.0207751
196	0x3ed4f695	0.41594377
197	0xbf782217	-0.96927017
198	0x3ed25ec4	0.41087925
199	0x3ef51795	0.47869554
200	0xbec580df	-0.38574883
201	0x3ed44f99	0.41466978
202	0xc005d6fe	-2.091247
203	0x3ce2dc5f	0.027692972
204	0xbf20cd81	-0.62813574
205	0x3f9776ea	1.1833165
206	0xbe29b5bf	-0.16573237
207	0xbe57dfc9	-0.21081461
208	0x3f4df24b	0.80447835
209	0x3f9f41a1	1.2441903
210	0xbefb5f18	-0.49095988
211	0x3f41054c	0.7539871
212	0x3f0ebf5a	0.5576073
213	0xbdc2e9e6	-0.09517269
214	0x3f30696c	0.6891086
215	0x3e0b5dce	0.13610002
216	0xbfc6e9d5	-1.554011
217	0x3da7700a	0.08175667
218	0x3ea69a8c	0.32539785
219	0x3ec52bfd	0.38510123
220	0x3987d6cc	0.00025909243
221	0x3f1aa3c3	0.6040613
222	0xbf6ad81b	-0.91736
223	0xbe88ba2f	-0.26704547
224	0xbdb03602	-0.08604051
225	0xbf4698ba	-0.7757679
226	0xbf191597	-0.5979857
227	0x3f00e4c5	0.50349075
228	0xc02432d3	-2.565602
229	0xbf029dbc	-0.51021934
230	0x3e99c4b7	0.30032894
231	0x3d5c9fd6	0.05386337
232	0x3e0de64b	0.13857381
233	0x3f86e9cd	1.05401
234	0xbe49d659	-0.19710673
235	0x3f3fee70	0.749732
236	0xbf9a595c	-1.205852
237	0xbea273a1	-0.31728843
238	0xbbbd468b	-0.0057762316
239	0x3ec9cc47	0.39413664
240	0x3eb2121f	0.3477945
241	0x3f94181b	1.1569856
242	0xbdedace6	-0.116052434
243	0xbf4df129	-0.80446106
244	0xbf2f1892	-0.68396866
245	0xbf9843ad	-1.1895653
246	0xbf1e4a0c	-0.61831737
247	0xbf3c2c58	-0.73505163
248	0xbf1781f5	-0.59182674
249	0x3f34f816	0.7069105
250	0x3f12fc49	0.57416207
251	0x3f3fedc4	0.74972177
252	0x3f0606c3	0.5235407
253	0xbfb19456	-1.3873394
254	0xbf909134	-1.1294312
255	0xbf039a42	-0.51407254

lstm.weight_ih_l0 f4 [512, 64]
0	0xbf516d4b	-0.8180739
1	0x3f3b20a6	0.7309669
2	0x3ea2f5e2	0.3182822
3	0xbe8d7a80	-0.27632523
4	0xbf62a0c9	-0.8852659
5	0x3efa9a5f	0.489459
6	0xbf4bc892	-0.7960292
7	0x3e84faa8	0.25972486
8	0xbeb936ab	-0.3617452
9	0x3dbc6da8	0.09200603
10	0xbe81efa3	-0.2537814
11	0xbe9fa6e2	-0.3118201
12	0xbefb066c	-0.49028337
13	0xbe58d222	-0.2117391
14	0xbd9e6293	-0.07733645
15	0xbf275e18	-0.6537795
16	0xbe4baa04	-0.19889075
17	0xbea50c5c	-0.32235992
18	0x3c569c4b	0.013098787
19	0xbf5b2ae1	-0.85612303
20	0x3ec09f02	0.37621313
21	0x3d88e47e	0.066842064
22	0xbe80ca82	-0.251545
23	0xbe44af5b	-0.19207518
24	0x3db744ae	0.089486465
25	0x3f1c0453	0.609441
26	0x3f7bfbbf	0.9843101
27	0xbd8480be	-0.06469868
28	0x3f5f2c69	0.8717714
29	0x3e7e2af6	0.24821076
30	0xbf0bbfc1	-0.5458947
31	0xbdf02613	-0.11726012
32	0x3edfb0ec	0.43689668
33	0xbe7e1156	-0.248113
34	0xbd15623c	-0.036470637
35	0x3e8cffde	0.2753896
36	0x3ea69e92	0.32542855
37	0xbe9daf3b	-0.30797753
38	0x3ee1e8d1	0.44122937
39	0x3e02dfc6	0.12780675
40	0xbd2f50e6	-0.04280176
41	0x3e5e3393	0.21699362
42	0x3e27e369	0.16395344
43	0xbe336331	-0.17518307
44	0x3ee2210a	0.44165832
45	0x3e87c3a1	0.2651644
46	0x3dd647a0	0.1046288
47	0x3ec9f2bf	0.39443013
48	0xbf219d7d	-0.63130933
49	0xbe8ef91b	-0.27924427
50	0x3e46a0b7	0.19397245
51	0x3d819962	0.063280836
52	0x3e320dbe	0.17388055
53	0x3e97aaeb	0.29622588
54	0xbf7521f2	-0.9575492
55	0x3ec21e3e	0.37913698
56	0x3eab750a	0.3348773
57	0x3f00610e	0.50148094
58	0x3e1db0f5	0.15399535
59	0xbf320659	-0.69540936
60	0xbe09e084	-0.13464552
61	0x3f3745ff	0.7159118
62	0xbf0f19c7	-0.5589871
63	0xbe20eabc	-0.15714544
64	0xbdc357c9	-0.09538228
65	0xbd420bfb	-0.047374707
66	0x3e426a84	0.18985945
67	0x3e91978a	0.28435928
68	0xbee3d739	-0.4450014
69	0x3f014dc9	0.50509316
70	0xbe220175	-0.15820868
71	0x3f070c15	0.5275281
72	0xbad66fed	-0.0016360261
73	0x3e8759c7	0.26435682
74	0xbe80a6f0	-0.25127363
75	0x3e71803b	0.23584072
76	0xbf3a30ac	-0.7273052
77	0xbe8190e0	-0.25305843
78	0xbf23faf2	-0.6405479
79	0xbead2dee	-0.33824104
80	0xbdc54a5b	-0.09633323
81	0x3f8f91a7	1.1216325
82	0xbedb3359	-0.42812613
83	0x3ee6b162	0.45057207
84	0x3e4b3cca	0.19847408
85	0x3f138d7d	0.5763777
86	0x3efedbd9	0.49777105
87	0xbe211461	-0.1573043
88	0x3f1c82b7	0.61136955
89	0x3db1c13e	0.08679436
90	0x3ed84519	0.42240217
91	0xbf1a5636	-0.602878
92	0x3e4aef05	0.19817741
93	0x3f5ca14e	0.8618363
94	0x3e02f425	0.12788446
95	0x3ee26293	0.4421583
96	0xbc9e4c21	-0.01932341
97	0x3e0fad32	0.14030913
98	0x3e97cde4	0.2964927
99	0x3edeb3d2	0.43496567
100	0x3f308a33	0.68960875
101	0xbb97407f	-0.004615843
102	0xbf52614a	-0.821797
103	0xbdc15fb5	-0.09442083
104	0x3ee3da11	0.4450231
105	0x3e183e4e	0.14867517
106	0xbe967fbc	-0.2939433
107	0x3e7e8e96	0.2485908
108	0xbedcea43	-0.43147478
109	0x3ef68fa5	0.48156467
110	0x3f424ee9	0.7590166
111	0x3f48b592	0.78402054
112	0x3ea19fdd	0.31567279
113	0x3ed6c392	0.41946083
114	0xbe8b7431	-0.27237085
115	0x3f5ed614	0.8704541
116	0x3d5341b0	0.051576316
117	0x3e158a8d	0.14603634
118	0xbf79a1c5	-0.97512466
119	0x3ec852fa	0.39125806
120	0x3e083d26	0.13304576
121	0x3ed0f09f	0.4080858
122	0x3e5ce749	0.21572603
123	0x3e3c44d0	0.18385625
124	0x3f35380e	0.7078866
125	0x3ef564f1	0.47928575
126	0xbec79db7	-0.38987514
127	0x3d400cd5	0.046887238
128	0xbf538f2f	-0.82640356
129	0x3e81139f	0.25210282
130	0xbf0de1dc	-0.5542276
131	0x3e3f95b1	0.18709446
132	0x3f5bd839	0.85876805
133	0x3e8cc0bc	0.27490795
134	0xbf314192	-0.6924068
135	0xbb018a7f	-0.0019766388
136	0xbf3649fb	-0.71206635
137	0x3aad4c76	0.001322164
138	0xbf08f5c1	-0.5349999
139	0x3dd3f4f8	0.103494585
140	0x3ec5b2fb	0.38613114
141	0xbee4a891	-0.44659856
142	0x3f111057	0.5666556
143	0xbf1f6ca8	-0.6227517
144	0xbe378514	-0.17921859
145	0xbcb26adb	-0.021779468
146	0x3d6134d6	0.05498203
147	0xbe30131e	-0.17194793
148	0xbf54ff3d	-0.8320196
149	0xbebbbcd4	-0.36667502
150	0xbde012c1	-0.10941077
151	0xbe862720	-0.26201725
152	0x3f4769aa	0.77895606
153	0x3e61283c	0.21988004
154	0x3f32a0a4	0.6977637
155	0x3d1e559d	0.038655866
156	0xbed7e076	-0.42163438
157	0x3e7216e4	0.23641545
158	0x3eae4087	0.34033605
159	0x3e221a86	0.1583043
160	0xbf575420	-0.8411274
161	0xbf065a0c	-0.5248115
162	0x3e18d101	0.14923479
163	0x3dbd85f5	0.09254066
164	0x3ebc42d7	0.36769745
165	0x3f40f2a3	0.75370234
166	0xbf05d4a9	-0.5227762
167	0x3e6ce81c	0.23135418
168	0xbe3fe0cb	-0.18738095
169	0xbeaa5d05	-0.33274093
170	0x3f236ee8	0.63841105
171	0x3ed45418	0.41470408
172	0xbde65309	-0.112463064
173	0x3ef06f82	0.46960074
174	0xbebe77cc	-0.37200773
175	0x3dc7409b	0.097291194
176	0xbe980a5b	-0.296954
177	0x3f2a3621	0.66488844
178	0x3d73f28c	0.059557483
179	0x3f191ba7	0.5980782
180	0x3ede1ddd	0.4338216
181	0x3e40b332	0.18818358
182	0xbda3c9b6	-0.07997458
183	0xbe8cb33c	-0.27480495
184	0x3ea66640	0.32499886
185	0x3f0857a7	0.53258747
186	0x3e6c9377	0.23103128
187	0x3f26030f	0.6484842
188	0x3f285895	0.65760165
189	0x3e466a67	0.19376527
190	0xbb90e070	-0.0044212863
191	0xbd201148	-0.03907898
192	0xbf7f9c9f	-0.9984836
193	0xbf2de244	-0.6792338
194	0x3f152a34	0.5826752
195	0xbf662e42	-0.89914334
196	0xbea59fc0	-0.32348442
197	0xbea1197e	-0.31464761
198	0x3f053e7f	0.52048486
199	0x3f252d09	0.64521843
200	0x3e82f0b8	0.2557428
201	0xbe010ce7	-0.12602578
202	0x3e1d4a70	0.15360427
203	0xbdc19fcb	-0.09454306
204	0xbeff9d3d	-0.4992465
205	0x3ee3c94c	0.44489515
206	0xbf3c67db	-0.7359597
207	0xbdef286f	-0.11677634
208	0x3cf320fa	0.02967881
209	0x3c08776e	0.0083292555
210	0xbf5497f2	-0.8304435
211	0x3f3d2ba8	0.7389474
212	0xbe596c00	-0.21232605
213	0x3e21cb9a	0.15800324
214	0xbe56c68d	-0.20974179
215	0x3e2014a8	0.1563288
216	0x3caad1eb	0.02085205
217	0x3eb0c6bc	0.34526622
218	0x3ca9729c	0.020684533
219	0x3f53aef3	0.82688826
220	0x3f164ea7	0.58713764
221	0x3ebbc4fe	0.3667373
222	0x3e10531d	0.14094205
223	0x3ee10967	0.43952486
224	0x3ec72e0f	0.38902327
225	0x3e70485b	0.23465101
226	0xbebde79f	-0.37090775
227	0x3e22f13d	0.15912338
228	0xbf44c086	-0.7685627
229	0xbe2ae7a0	-0.1668992
230	0xbf1536cc	-0.5828674
231	0xbf03cfe1	-0.51489073
232	0xbe4e3205	-0.20136268
233	0x3e958666	0.292041
234	0x3e7526fd	0.23940654
235	0xbf095704	-0.536484
236	0xbeae5b56	-0.3405406
237	0x3f04ea0a	0.51919615
238	0xbe165581	-0.14681055
239	0x3defaaba	0.117024854
240	0xbebd89ab	-0.37019095
241	0x3ecb79ee	0.39741462
242	0xbed2219f	-0.41041276
243	0xbf3afa51	-0.730382
244	0xbd283bac	-0.041072533
245	0x3cd1c2d9	0.025605606
246	0xbd9412f6	-0.07230179
247	0xbdab46ef	-0.08363139
248	0xbe28fac1	-0.16501905
249	0xbe056a97	-0.13028942
250	0x3f1fa1e3	0.62356395
251	0x3f0d9459	0.55304486
252	0x3d38bcb3	0.045101833
253	0xbd6ca38d	-0.05777316
254	0xbdf149db	-0.11781665
255	0xbf2734e0	-0.65315056

lstm.weight_hh_l0 f4 [512, 128]
0	0x3db3fd4d	0.08788548
1	0xbe1f968e	-0.15584776
2	0x3effd1bb	0.499647
3	0x3dfec322	0.124395624
4	0xbd93b1d9	-0.07211656
5	0x3d9788ed	0.073991634
6	0xbf05bb30	-0.5223875
7	0x3f43190f	0.7621011
8	0x3deabbb2	0.11461581
9	0x3ec6707e	0.387577
10	0xbee81aeb	-0.45333037
11	0x3dfe5333	0.12418213
12	0xbe866e2f	-0.26255938
13	0xbf7fecf3	-0.9997093
14	0xbf4caa44	-0.79947305
15	0xbecca169	-0.39966896
16	0x3f4107fd	0.75402814
17	0xbe9d45f5	-0.30717435
18	0x3e176fe5	0.14788778
19	0x3efc6676	0.49296921
20	0xbe89d260	-0.26918316
21	0xbee10534	-0.43949282
22	0x3e8b1aa2	0.27168757
23	0x3ec21b4c	0.3791145
24	0xbef57fe5	-0.47949138
25	0x3d9f91bd	0.07791469
26	0x3e5afa72	0.213846
27	0xbe935917	-0.28778908
28	0x3e4af199	0.19818725
29	0x3f54d513	0.83137625
30	0x3eed9bb8	0.46407866
31	0x3f0bfaa7	0.5467934
32	0xbf6b6f17	-0.91966385
33	0xbe98562b	-0.2975324
34	0x3ca8ea46	0.020619523
35	0xbef8eb2d	-0.48616925
36	0x3f6a22ef	0.91459554
37	0x3da12838	0.07868999
38	0xbce6e56e	-0.028185572
39	0xbebb5755	-0.36590067
40	0x3d0e3da9	0.034726772
41	0xbda75957	-0.08171337
42	0xbe9668f2	-0.29376942
43	0x3e06e613	0.13173704
44	0xbf0335a6	-0.51253736
45	0x3df56b63	0.11983373
46	0x3ef8bb7a	0.48580533
47	0x3eec7832	0.46185452
48	0xbe5af345	-0.21381862
49	0xbd8e2cf4	-0.06942168
50	0xbf1cdf09	-0.61277825
51	0xbe848657	-0.25883743
52	0xbe8f6426	-0.28006095
53	0xbf07c136	-0.5302919
54	0xbdf22340	-0.1182313
55	0xbf4daeec	-0.80345035
56	0x3f6bab6b	0.9205844
57	0xbe92e92e	-0.28693527
58	0x3e9df3b2	0.30849987
59	0xbe76a97b	-0.24088089
60	0xbd4174c6	-0.047230504
61	0xbe184a18	-0.14872015
62	0x3ee7208d	0.45142022
63	0xbedde5d4	-0.43339407
64	0x3efb3215	0.49061647
65	0x3f240729	0.64073426
66	0x3e24661d	0.16054578
67	0xbecc4c39	-0.39901903
68	0x3e80a9d4	0.2512957
69	0x3d4d7e84	0.050169483
70	0x3f347030	0.70483685
71	0xbef1f3d0	-0.47256327
72	0x3cd87b47	0.02642597
73	0x3dea52d3	0.11441579
74	0x3ec2d1d0	0.380507
75	0x3e90cbd1	0.282805
76	0x3cc148bf	0.023594258
77	0xbf9bd3ba	-1.2173989
78	0x3d8d5392	0.069007054
79	0xbea12ca7	-0.3147938
80	0x3eff3002	0.49841315
81	0x3e6a55f9	0.22884358
82	0x3e049ca2	0.12950376
83	0x3f013251	0.504674
84	0x3e82aec7	0.2552397
85	0xbf882721	-1.0636941
86	0x3f18981d	0.59607106
87	0x3dcef59a	0.101054385
88	0xbeb9832e	-0.36232895
89	0x3ebc17e3	0.36736974
90	0x3f9f5e1c	1.2450595
91	0x3f47cae9	0.7804399
92	0x3f1f6134	0.62257695
93	0x3eb75d85	0.35813537
94	0x3f1f22dd	0.6216257
95	0xbe40ad6b	-0.18816154
96	0xbed322e7	-0.41237566
97	0x3f211424	0.6292136
98	0xbe311f37	-0.17297064
99	0x3d6242d9	0.055239532
100	0x3e589395	0.21150048
101	0x3e710989	0.23538794
102	0xbe8fe0a0	-0.28101063
103	0x3dc7a252	0.09747757
104	0x3f2854b1	0.6575423
105	0x3e765cfb	0.24058907
106	0x3e24a3f9	0.16078176
107	0xbf258541	-0.64656454
108	0x3e9e99e0	0.30976772
109	0x3e5dd9c8	0.21665108
110	0x3f4e529c	0.805948
111	0xbd2853ba	-0.041095473
112	0x3f90f22e	1.1323907
113	0xbe234a5e	-0.15946338
114	0xbcf3789f	-0.029720603
115	0xbc9fd58f	-0.019511012
116	0xbeb3c405	-0.3511049
117	0x3e6d997e	0.23203084
118	0xbeca3563	-0.39493856
119	0x3e2ddb60	0.16978216
120	0xbef84162	-0.48487383
121	0xbd052061	-0.032501582
122	0x3e87902a	0.26477176
123	0xbded1933	-0.11577072
124	0xbf10af8a	-0.5651785
125	0xbf6e405c	-0.93066955
126	0x3ee72d00	0.4515152
127	0xbef508ff	-0.47858426
128	0x3cf69456	0.030100029
129	0xbf0aee0e	-0.5426949
130	0x3f2b6ff8	0.66967726
131	0xbe14796b	-0.14499442
132	0xbdd6b6a7	-0.10484057
133	0xbea0a7ef	-0.31378123
134	0x3e2c53b6	0.16828808
135	0xbf2e8587	-0.68172497
136	0xbcd83879	-0.026394116
137	0xbd9c05ae	-0.07618271
138	0x3e3ff170	0.18744445
139	0x3e0d8402	0.13819888
140	0xbe60ed74	-0.21965581
141	0x3eed7eaf	0.46385714
142	0xbea19246	-0.3155691
143	0x3f46ba35	0.7762788
144	0xbdeb8103	-0.114992164
145	0xbd820da5	-0.06350259
146	0x3eb3a146	0.3508398
147	0xbe8cd839	-0.27508715
148	0xbe2ef804	-0.17086798
149	0x3e46006c	0.19336098
150	0xbe8e0052	-0.2773462
151	0xbeb25172	-0.34827763
152	0x3f00c904	0.50306726
153	0xbeb179fd	-0.34663382
154	0x3dd8cf6e	0.10586439
155	0xbe87a406	-0.26492327
156	0x3ec24448	0.3794272
157	0xbf0fa7d5	-0.56115466
158	0xbe959069	-0.2921174
159	0x3d5db08a	0.05412344
160	0x3f0f89d1	0.56069666
161	0x3e3b23d8	0.18275392
162	0x3f245831	0.6419707
163	0x3f3c1458	0.7346854
164	0xbf0b8003	-0.54492205
165	0xbed3488b	-0.41266283
166	0xbed84589	-0.4224055
167	0x3f230c03	0.63690203
168	0x3cffe740	0.031238198
169	0x3bceac04	0.006307127
170	0x3e8c861a	0.2744606
171	0x3e77f420	0.2421422
172	0x3dedade3	0.11605432
173	0xbdf36daa	-0.11886151
174	0xbe710b2f	-0.23539422
175	0x3d854183	0.06506636
176	0x3f390277	0.72269386
177	0xbf88a059	-1.0673934
178	0xbeaac120	-0.33350468
179	0xbe588d4f	-0.21147655
180	0xbe476ee5	-0.19475897
181	0xbe52bbd8	-0.20579469
182	0x3db56af6	0.08858292
183	0x3f695142	0.91139615
184	0xbebf2a76	-0.37337083
185	0xbf9e5cfa	-1.2372124
186	0xbe38a7ac	-0.18032712
187	0xbe4d2860	-0.20034933
188	0x3f0f301c	0.55932784
189	0x3ebd548f	0.36978576
190	0xbecd4348	-0.40090394
191	0x3eaf88ea	0.34284145
192	0xbe3a0aa6	-0.18168125
193	0xbd246d4c	-0.040143296
194	0xbcb01430	-0.021494001
195	0x3eb11c8b	0.3459209
196	0xbebe58c8	-0.3717711
197	0x3f1bcd20	0.6085987
198	0x3ba61913	0.005068907
199	0x3e5f77ea	0.21823087
200	0xbe9ab9fd	-0.30220023
201	0x3f1e904b	0.61938924
202	0xbd6d6090	-0.057953417
203	0xbd88a7ab	-0.06672605
204	0x3e65feaf	0.22460435
205	0x3e6483f7	0.22315966
206	0xbe164e05	-0.146782
207	0xbe13b5ec	-0.14424866
208	0x3e5a3d28	0.21312392
209	0x3ee6eada	0.45101053
210	0xbf29e67d	-0.6636732
211	0x3dd51c48	0.10405785
212	0x3dbfba00	0.093616486
213	0x3d475a2c	0.04866998
214	0x3ea535e6	0.32267684
215	0xbeea5ee9	-0.45775536
216	0xbc1f8f48	-0.009738751
217	0xbf4f32c9	-0.80936867
218	0xbf4d3c0a	-0.8016974
219	0x3ece917e	0.40345377
220	0x3f07b96e	0.5301732
221	0x3e8daf2d	0.2767271
222	0x3ea472be	0.3211879
223	0xbf520432	-0.8203765
224	0x3ed3447e	0.41263193
225	0xbe4378ea	-0.19089094
226	0x3e9405e0	0.28910732
227	0xbf14dfbb	-0.58153886
228	0x3ea93c23	0.33053693
229	0xbe4fb60b	-0.20284288
230	0x3e115395	0.1419204
231	0xbe2d3638	-0.16915214
232	0x3e23de79	0.16002835
233	0xbe376f54	-0.17913562
234	0xbf4db8fe	-0.803604
235	0xbe3260b2	-0.17419699
236	0xbe8fee4d	-0.28111497
237	0xbe07b88e	-0.13253996
238	0xbeae8373	-0.34084663
239	0xbddbf2f8	-0.10739702
240	0x3eacc22e	0.33741897
241	0x3bb93362	0.0056518773
242	0xbec6bed9	-0.3881748
243	0xbedaac84	-0.42709744
244	0xbe1fcde0	-0.15605879
245	0xbe9ad9f7	-0.3024442
246	0xbe98fd8d	-0.29880944
247	0xbe83ad0e	-0.25717968
248	0x3e8fd654	0.28093207
249	0xbda1bf91	-0.078978665
250	0xbcf3aa0c	-0.02974417
251	0x3f5a5022	0.8527852
252	0x3f69a667	0.91269535
253	0xbd18e08c	-0.03732352
254	0xbd3fcd98	-0.04682693
255	0x3ca07092	0.019584928

lstm.bias_ih_l0 f4 [512]
0	0x3ee4a96b	0.44660506
1	0xbf219c40	-0.63129044
2	0x3e5986b9	0.21242799
3	0xbeb1cd23	-0.3472682
4	0x3e13c1e6	0.14429435
5	0xbe1384f1	-0.14406182
6	0x3ebb9515	0.36637178
7	0xbe260246	-0.16211805
8	0x3d983d27	0.07433539
9	0x3ea56222	0.32301432
10	0x3e0dc47d	0.13844486
11	0x3e7bf363	0.24604563
12	0xbe92d110	-0.28675127
13	0xbecbb2f7	-0.39784977
14	0x3f099ce1	0.53755003
15	0xbc8d072c	-0.017215334
16	0x3df14a1b	0.117817126
17	0x3ee71f37	0.45141003
18	0x3d35901c	0.044326887
19	0x3f759c09	0.95941216
20	0x3f50f6e2	0.81626713
21	0xbe0b52f3	-0.13605861
22	0x3ef3cd56	0.47617596
23	0x3e2b7043	0.16742043
24	0x3e9aba64	0.3022033
25	0x3d5f433e	0.054507487
26	0x3e5f0599	0.21779479
27	0x3f3aa978	0.7291484
28	0xbe2e7cfa	-0.17039862
29	0x3f4ffd0a	0.8124548
30	0xbee6e734	-0.4509827
31	0xbe18783e	-0.14889619
32	0xbda90b9d	-0.08254168
33	0x3d902451	0.07038177
34	0xbe8ecb93	-0.2788969
35	0xbddd303f	-0.10800218
36	0x3e5e6257	0.21717201
37	0xbea3af34	-0.31969607
38	0x3d0161a8	0.031587273
39	0xbe8bd9f1	-0.27314714
40	0xbe93886e	-0.28815025
41	0xbe91c5c0	-0.28471184
42	0x3ef51025	0.4786388
43	0xbe81333b	-0.25234398
44	0xbda81abb	-0.082082234
45	0x3e5958ef	0.21225332
46	0x3e877af0	0.2646098
47	0x3f2f39b7	0.6844744
48	0x3e0e9bef	0.13926671
49	0x3e7a460a	0.2444078
50	0xbef7c093	-0.4838911
51	0x3edc4dff	0.43028256
52	0xbe183040	-0.14862156
53	0xbedd5921	-0.43232062
54	0x3ea418ea	0.32050258
55	0x3ef70061	0.48242477
56	0x3fa521f1	1.2900983
57	0xbd754277	-0.05987784
58	0xbde868a9	-0.11348087
59	0xbebbf09a	-0.36707002
60	0xbdeb151d	-0.114786364
61	0xbeafa005	-0.34301773
62	0x3b343c3d	0.0027501725
63	0xbdaf878e	-0.08570777
64	0xbd86c676	-0.06580822
65	0x3e4abe11	0.19799067
66	0x3ea99e9b	0.3312882
67	0xbeb2ea1e	-0.34944242
68	0xbef39d7e	-0.47581095
69	0xbf62e128	-0.8862481
70	0x3e379ed9	0.1793169
71	0x3d17cb8b	0.037059348
72	0xbe082d8f	-0.13298629
73	0x3f188f8a	0.59594023
74	0xbe4828f2	-0.1954687
75	0xbe80749d	-0.2508897
76	0x3f71379a	0.94225466
77	0x3f012386	0.5044483
78	0x3ee3dc91	0.44504216
79	0x3ecab8a0	0.39593983
80	0xbef81359	-0.4845226
81	0xbe02a494	-0.12758094
82	0xbd08703c	-0.03331016
83	0xbec16cb8	-0.37778258
84	0xbe482538	-0.19545448
85	0xbeb4efbf	-0.35339162
86	0x3b86a72f	0.0041092853
87	0x3e1fbc1d	0.15599103
88	0xbf7f40b4	-0.99708104
89	0xbeab923f	-0.33510014
90	0x3e8f5e4d	0.28001633
91	0x3e869cae	0.26291412
92	0x3e8c115a	0.27356988
93	0x3d3a2a0e	0.045450263
94	0x3eaa9cef	0.33322856
95	0x3f0f49d0	0.55972004
96	0x3ca73847	0.020412577
97	0xbe633459	-0.22187938
98	0x3ebdb503	0.37052163
99	0x3cdadfe8	0.026718095
100	0xbec96cf2	-0.3934093
101	0xbe54b561	-0.20772316
102	0xbec5fcef	-0.38669536
103	0xbd27666d	-0.040869165
104	0x3e8c3bf5	0.27389494
105	0x3e2dcafd	0.16971965
106	0x3e98021d	0.29689112
107	0x3d9bd541	0.07609034
108	0x3e2d1e4b	0.16906087
109	0xbe33c4c5	-0.1755553
110	0x3d16334b	0.03667001
111	0x3eb924eb	0.3616098
112	0xbec676d2	-0.38762528
113	0x3e4a13e9	0.19734158
114	0x3f0910c1	0.5354119
115	0xbe979036	-0.29602212
116	0xbf590646	-0.847752
117	0x3e102ed2	0.1408036
118	0x3e9bc4f0	0.3042369
119	0x3f215d34	0.6303284
120	0xbe461b5b	-0.19346373
121	0x3eccc94a	0.3999732
122	0x3e3602ea	0.17774549
123	0xbf2fa7f1	-0.68615633
124	0xbed4b79b	-0.4154633
125	0x3e08b0f8	0.13348758
126	0x3e759caa	0.23985544
127	0xbcdb1e8d	-0.026747966
128	0x3ee00227	0.43751642
129	0x3f28f663	0.66000956
130	0x3ea541e5	0.32276836
131	0x3de8521c	0.11343786
132	0x3ecd7d70	0.40134764
133	0x3c0e91ad	0.008701724
134	0x3f207fef	0.6269521
135	0xbe036dda	-0.12834874
136	0x3ed6d2f6	0.41957825
137	0x3f18f949	0.5975538
138	0x3fbe4aa0	1.4866524
139	0x3f5b56ea	0.85679495
140	0xbed82165	-0.42212978
141	0x3f01edec	0.50753665
142	0x3edc6360	0.43044567
143	0x3edfa808	0.43682885
144	0x3f7e3a68	0.9930787
145	0x3f956af2	1.1673262
146	0xbc153d91	-0.009108917
147	0x3f0999f9	0.5375057
148	0x3e29d2c3	0.16584305
149	0xbcf7dbb8	-0.030256137
150	0x3df56309	0.1198178
151	0x3f21c12e	0.63185394
152	0x3ecffbbe	0.40621752
153	0x3e88da0a	0.2672885
154	0xbdc474cb	-0.09592589
155	0x3e7827e7	0.24233972
156	0x3eff5926	0.49872702
157	0x3f9e45ee	1.2365091
158	0x3e90f893	0.28314647
159	0x3ed7c05e	0.42138952
160	0xbda597a1	-0.080855615
161	0x3f8bb31e	1.0914037
162	0x3f493e97	0.7861113
163	0x3f4c98cf	0.7992067
164	0x3f5846eb	0.8448321
165	0x3ee707f3	0.45123252
166	0x3d92c747	0.071669154
167	0xbea17a5b	-0.31538662
168	0x3f477edd	0.77927953
169	0x3ed9918a	0.4249385
170	0x3ee63b8a	0.449673
171	0x3f6429b9	0.89126164
172	0x3d8ff03f	0.07028245
173	0x3f21ac54	0.63153577
174	0x3e2c55f0	0.16829658
175	0x3f2eaa8d	0.6822899
176	0x3ce24359	0.027620004
177	0x3f5c9ff9	0.861816
178	0x3f40547d	0.7512892
179	0x3efafa91	0.49019292
180	0x3f31f7e8	0.695189
181	0x3e26c247	0.16285048
182	0x3ee46d9c	0.44614875
183	0x3acbbca6	0.0015543893
184	0x3ec4d03f	0.3844013
185	0x3e9e738d	0.30947533
186	0x3d322fc0	0.04350257
187	0xbe70e46b	-0.23524635
188	0x3e4bff38	0.19921577
189	0x3ded1aa6	0.115773484
190	0x3d95d385	0.07315735
191	0xbe8b3c43	-0.27194414
192	0x3e395de9	0.1810223
193	0x3e9b74d3	0.30362567
194	0x3e776db7	0.24162947
195	0x3d8e1a75	0.0693864
196	0x3df631c1	0.120212086
197	0xbd4048d4	-0.046944454
198	0x3f229c64	0.63519883
199	0x3eda7479	0.42666987
200	0x3edfe213	0.43727168
201	0x3ef84291	0.48488286
202	0xbe9984ad	-0.29984036
203	0x3dbef3a8	0.093238175
204	0x3f43d790	0.765008
205	0x3f5f2710	0.8716898
206	0x3f2dd218	0.678987
207	0xbd0ed39d	-0.03486978
208	0x3e7cf6fa	0.24703589
209	0xbdde7406	-0.108619735
210	0x3f5ef31d	0.8708971
211	0xbe0401d6	-0.12891325
212	0x3efbf9f5	0.4921414
213	0x3e93e6a4	0.28886902
214	0x3e3b1160	0.18268347
215	0x3f401536	0.75032365
216	0x3edd3b45	0.43209282
217	0x3fa79508	1.3092356
218	0x3f30e55b	0.6909997
219	0x3f1d49bb	0.6144063
220	0x3e9f0cda	0.31064492
221	0x3efdee82	0.4959603
222	0x3e6f4952	0.23367813
223	0xbe6e4f96	-0.23272547
224	0x3d23a253	0.039949726
225	0xbe3a17f1	-0.18173195
226	0x3edcb3c4	0.431059
227	0x3ee5a1de	0.44850057
228	0x3f48088f	0.7813806
229	0xbda6b441	-0.081398495
230	0x3e90e235	0.28297582
231	0x3e664dfd	0.22490688
232	0x3f930cf3	1.1488327
233	0x3db02575	0.08600894
234	0x3dbf340f	0.09336101
235	0x3f25c2b4	0.6475022
236	0x3c9a8809	0.018863695
237	0xbd8b9292	-0.068150654
238	0x3f196e96	0.59934366
239	0x3e87053c	0.2637118
240	0x3e278c28	0.16362059
241	0x3e98536b	0.29751143
242	0x3e51ab0a	0.20475402
243	0x3f0a74c5	0.54084426
244	0xbe4f8da7	-0.2026888
245	0x3d71c5f3	0.05902667
246	0x3edc4425	0.4302074
247	0x3f063c90	0.5243616
248	0xbd198ff5	-0.037490804
249	0x3ea90b72	0.33016545
250	0xbcb031e5	-0.021508167
251	0x3d178b5b	0.036998134
252	0x3eed2fb9	0.46325472
253	0x3f14e85a	0.5816704
254	0x3f4c5da1	0.79830366
255	0x3f329176	0.69753206

lstm.bias_hh_l0 f4 [512]
0	0x3ecc31b4	0.3988167
1	0xbf0bc30b	-0.54594487
2	0x3e876896	0.2644698
3	0xbef278e2	-0.4735785
4	0x3e29cb88	0.16581547
5	0xbe83011c	-0.25586784
6	0x3edc7f7c	0.43066013
7	0xbe678199	-0.22608031
8	0xbd437733	-0.0477211
9	0x3e8f8de9	0.28037956
10	0x3d5a23e8	0.0532569
11	0x3e99915e	0.2999372
12	0xbec89817	-0.39178535
13	0xbefc644a	-0.49295264
14	0x3f08c990	0.5343256
15	0xbdd8399e	-0.105578646
16	0x3dd44781	0.10365201
17	0x3ea9ae8d	0.33140984
18	0x3cdaebb0	0.026723713
19	0x3f69e3f4	0.91363454
20	0x3f5a093a	0.8517033
21	0xbd27c514	-0.040959433
22	0x3ee03a99	0.43794706
23	0x3e0156a1	0.12630703
24	0x3e88eaac	0.2674154
25	0x3d4b7b9a	0.049678423
26	0x3eba7e6e	0.36424583
27	0x3f2fec52	0.6871997
28	0xbe10b386	-0.14130983
29	0x3f59d7ae	0.85094726
30	0xbef5c29e	-0.48000044
31	0xbe0f71a9	-0.14008202
32	0x3d44394d	0.04790621
33	0x3e36397d	0.17795368
34	0xbeb4cfb4	-0.35314715
35	0xbe06b6a1	-0.13155605
36	0x3e2fc03c	0.17163175
37	0xbeb314bc	-0.34976757
38	0xbbf2fbd9	-0.0074152765
39	0xbeae5e2b	-0.3405622
40	0xbe960e71	-0.29307893
41	0xbe9c1a0b	-0.3048862
42	0x3ed81d89	0.42210034
43	0xbe995aa5	-0.2995197
44	0x3c38856d	0.01126228
45	0x3e581081	0.21100046
46	0x3e9cae13	0.30601558
47	0x3f32d949	0.698628
48	0x3e3b2d28	0.18278944
49	0x3e1410dc	0.14459556
50	0xbeed23cd	-0.46316376
51	0x3f06079e	0.5235537
52	0xbe0a380e	-0.13497946
53	0xbeabec55	-0.33578745
54	0x3eb77c89	0.358372
55	0x3f0b2c10	0.5436411
56	0x3fa713f8	1.3052969
57	0xbdef120e	-0.116733655
58	0xbde4ba7b	-0.11168381
59	0xbe9d6c6e	-0.30746788
60	0xbe27c0a7	-0.16382085
61	0xbeab3f68	-0.33446813
62	0x3dd68bdf	0.10475897
63	0xbdbb38a8	-0.09141666
64	0xbdb55181	-0.08853436
65	0x3e3340d9	0.17505206
66	0x3e58092e	0.21097252
67	0xbecfbb2c	-0.40572488
68	0xbed16dc8	-0.4090407
69	0xbf61225d	-0.8794306
70	0x3dfe24a5	0.12409333
71	0xbd3da270	-0.04629749
72	0xbe1c319e	-0.15253302
73	0x3f1353f1	0.5754996
74	0xbe92dc97	-0.28683922
75	0xbe6bd7b2	-0.230315
76	0x3f725bc8	0.946713
77	0x3eb7e3cb	0.3591598
78	0x3eee3286	0.4652292
79	0x3e7ad63b	0.24495785
80	0xbeca0e0c	-0.39463842
81	0xbe17e47a	-0.1483325
82	0xbd97185f	-0.07377695
83	0xbeb3486b	-0.35016188
84	0xbe3d62e0	-0.18494749
85	0xbe8a909d	-0.27063456
86	0x3cb74aad	0.022374475
87	0x3e3710d7	0.17877518
88	0xbf5dd8cc	-0.8665893
89	0xbe9dbd72	-0.30808598
90	0x3ed05270	0.40687895
91	0x3e4afa8c	0.19822139
92	0x3e09776a	0.13424459
93	0xbd7b8ddb	-0.06141458
94	0x3e879ef5	0.26488462
95	0x3f0dccc9	0.553906
96	0xbd03b9a3	-0.03215946
97	0xbe234ca8	-0.15947211
98	0x3ea9489d	0.33063212
99	0x3d3f933c	0.046771273
100	0xbed029fc	-0.40657032
101	0xbdde164d	-0.10844097
102	0xbecb38ea	-0.3969186
103	0x3c4cf1bb	0.012508805
104	0x3ebd4d53	0.36973056
105	0x3e03fe73	0.12890033
106	0x3e844f64	0.2584182
107	0x3d537a29	0.051630173
108	0x3e2357e6	0.159515
109	0xbe2d88ec	-0.16946763
110	0x3d33dce6	0.043911837
111	0x3e74a6a2	0.2389169
112	0xbecfab92	-0.40560585
113	0x3e3f07c9	0.18655314
114	0x3f15e754	0.58556104
115	0xbe87e750	-0.26543665
116	0xbf322c80	-0.6959915
117	0x3e225a5c	0.15854782
118	0x3ec98278	0.39357352
119	0x3f1543ca	0.5830656
120	0xbe9f4b83	-0.31112298
121	0x3ee74023	0.4516612
122	0x3e99174b	0.29900584
123	0xbf3e7f08	-0.74412584
124	0xbeaf6abb	-0.34261116
125	0x3c2e010b	0.010620366
126	0x3eb981e7	0.3623192
127	0xbda59b77	-0.08086293
128	0x3eb049a8	0.34431195
129	0x3f338744	0.70128274
130	0x3eac058e	0.33597988
131	0x3de130c4	0.109956294
132	0x3f04a107	0.5180821
133	0x3d9bf7ac	0.07615599
134	0x3f281001	0.6564942
135	0xbdb011d4	-0.085971504
136	0x3ed10dd4	0.40830863
137	0x3f1c7c2e	0.61126983
138	0x3fc78ede	1.5590475
139	0x3f4912f3	0.7854454
140	0xbee822c5	-0.45339027
141	0x3f114382	0.56743634
142	0x3ee48a9a	0.44636995
143	0x3e9cc352	0.30617768
144	0x3f7933c7	0.9734463
145	0x3f8a60c9	1.0810786
146	0xbc0f7aaf	-0.008757277
147	0x3ec7cc3d	0.3902301
148	0x3e49cc35	0.19706805
149	0x3c4b60a2	0.012413176
150	0x3df55631	0.1197933
151	0x3f300771	0.68761355
152	0x3eaa8677	0.33305714
153	0x3e9da94f	0.30793235
154	0xbe81c911	-0.25348714
155	0x3ebf5dee	0.3737635
156	0x3f0ca5ca	0.54940474
157	0x3f991ed1	1.196253
158	0x3e9432d0	0.28945017
159	0x3ecdc987	0.40192816
160	0xbe44fd37	-0.19237219
161	0x3f83b8c7	1.0290765
162	0x3f52bf09	0.82322747
163	0x3f508980	0.8145981
164	0x3f4d5adc	0.80216765
165	0x3edf2b84	0.43587887
166	0x3e20b865	0.15695341
167	0xbe8d4b1f	-0.27596375
168	0x3f62b405	0.8855594
169	0x3ecc3186	0.39881533
170	0x3edff8bd	0.4374446
171	0x3f8336e3	1.0251125
172	0xbd18b3fb	-0.037281018
173	0x3f39a129	0.72511536
174	0x3e4f64ab	0.20253246
175	0x3f2c19ab	0.67226666
176	0xbcaeed8a	-0.021353502
177	0x3f62f141	0.88649374
178	0x3f46d93e	0.77675235
179	0x3f1d5c7b	0.6146924
180	0x3f218278	0.63089705
181	0x3db975f0	0.09055698
182	0x3ebdce6f	0.3707156
183	0xbd6e91f0	-0.058244646
184	0x3ed9fe86	0.42576998
185	0x3e89a1be	0.26881212
186	0x3d04c54a	0.032414712
187	0xbe4c20ab	-0.19934337
188	0x3e751648	0.23934281
189	0x3de5ad17	0.11214655
190	0x3deee2e7	0.11664372
191	0xbe49e9b8	-0.19718063
192	0x3e81979f	0.2531099
193	0x3e8e57f9	0.27801493
194	0x3e8362f1	0.25661424
195	0x3de0a83b	0.109695874
196	0xbb059bbe	-0.002038702
197	0x3cf2756d	0.029597009
198	0x3f0b7636	0.5447725
199	0x3ed0f26c	0.40809953
200	0x3eca9f5e	0.39574713
201	0x3ef87130	0.48523855
202	0xbe82b8b5	-0.25531545
203	0x3d5ad5e9	0.053426657
204	0x3f42642d	0.75934106
205	0x3f708acf	0.93961805
206	0x3f1f4adc	0.622236
207	0x3d67d788	0.05660203
208	0x3e9cfe6f	0.30662867
209	0xbdab233f	-0.08356332
210	0x3f6417d5	0.89098865
211	0xbdf158ed	-0.11784539
212	0x3eced9eb	0.40400633
213	0x3e87a494	0.2649275
214	0x3e506ca6	0.20353946
215	0x3f49c8be	0.78821933
216	0x3eb83781	0.35979846
217	0x3faf64b4	1.3702607
218	0x3f15f749	0.5858045
219	0x3f3aa3ec	0.72906375
220	0x3e999f1a	0.30004197
221	0x3f253bf2	0.64544594
222	0x3eadc07b	0.33935913
223	0xbe323157	-0.17401634
224	0x3d351f2e	0.04421919
225	0xbe13feff	-0.14452742
226	0x3ec6e153	0.38843784
227	0x3eacfade	0.33785146
228	0x3f4bfb43	0.7968027
229	0xbd82bf69	-0.06384165
230	0x3e845480	0.25845718
231	0x3e6c42fe	0.2307243
232	0x3f8cecc9	1.1009761
233	0x3dabd9a6	0.083911225
234	0x3da29f14	0.07940498
235	0x3f28d75d	0.6595362
236	0x3d37bcaf	0.044857677
237	0xbcbd15fa	-0.023081768
238	0x3f3b841a	0.73248446
239	0x3ea6def7	0.32591984
240	0x3e5f889e	0.21829459
241	0x3e8aad94	0.27085555
242	0x3d119f99	0.035552595
243	0x3f1af891	0.6053553
244	0xbeab07dd	-0.33404437
245	0x3d83dd2a	0.06438668
246	0x3ed8bea2	0.4233294
247	0x3edbd5cc	0.42936552
248	0xbd7be035	-0.061493117
249	0x3ea4ffd1	0.32226422
250	0xbcc30459	-0.023805784
251	0xbd0d1412	-0.03444297
252	0x3ef88f0b	0.48546633
253	0x3f0ff7bf	0.56237406
254	0x3f4652e9	0.7747026
255	0x3f2f81c9	0.6855741

fc.weight f4 [147, 128]
0	0xc009a85e	-2.1509013
1	0xbe9ffe07	-0.31248495
2	0xc04b471b	-3.176215
3	0x3eb84f68	0.35998082
4	0x3e34c2bc	0.1765241
5	0xbfa92943	-1.3215717
6	0xbe5fccd0	-0.21855474
7	0x3f836742	1.0265887
8	0x3f9932eb	1.1968664
9	0x3f48a014	0.7836926
10	0x3fd42814	1.6574731
11	0x3df2cf05	0.11855892
12	0xbffde111	-1.983431
13	0x3d3d28e9	0.046181593
14	0x3ffff7f3	1.9997543
15	0x40da7f8f	6.828071
16	0x4035e18a	2.8418908
17	0xbf40cae5	-0.7530959
18	0x3fdeb1c9	1.7398006
19	0xbfca7971	-1.5818311
20	0x3d7d7d95	0.061887342
21	0x40096378	2.146696
22	0xbfd54459	-1.6661483
23	0x3fe611dc	1.79742
24	0x3f779d56	0.9672445
25	0xbfe278ca	-1.7693112
26	0xbf5ce285	-0.8628314
27	0xbfc005c3	-1.5001758
28	0xbf418398	-0.7559142
29	0x3fe2896a	1.7698185
30	0x400c64f5	2.193662
31	0xbf53deb9	-0.8276172
32	0xc042186f	-3.0327413
33	0x3f82b378	1.021102
34	0x3f9b3c40	1.2127762
35	0x3f95a6bb	1.1691507
36	0xbcecdaca	-0.02891292
37	0xc08cb1b3	-4.396692
38	0xbf4f86ca	-0.81065047
39	0x400ccb08	2.199892
40	0xbfb384b6	-1.4024875
41	0xc0228dff	-2.5399168
42	0x3e164e75	0.14678366
43	0xbc5cf681	-0.0134865055
44	0x3fc38b88	1.5276957
45	0xbec227e5	-0.37921062
46	0x3f9bb912	1.2165854
47	0x3f9255d8	1.1432447
48	0xbec95d98	-0.3932922
49	0xbfac8978	-1.3479452
50	0x4062f7df	3.5463789
51	0xbf7051d1	-0.9387484
52	0xbfc6c22f	-1.552801
53	0xbe9fe172	-0.3122669
54	0xc07cba6f	-3.948879
55	0x3fd3e50c	1.6554275
56	0xbe3ac17a	-0.18237868
57	0xbf8d6d4a	-1.1048977
58	0xbfd561a3	-1.6670421
59	0xb88eb97b	-6.805636e-05
60	0xbe0ace25	-0.135552
61	0x3ea9c848	0.33160615
62	0xbfb05a99	-1.3777648
63	0xbfc34d30	-1.5257931
64	0x400817b8	2.1264477
65	0xc04296e2	-3.0404592
66	0x3fe17fe4	1.7617154
67	0x3f3df248	0.74197817
68	0xc00d0cc1	-2.2039034
69	0x3fdfa5c3	1.7472461
70	0x3eed30e5	0.46326366
71	0xc00394fc	-2.0559683
72	0x4001e1f7	2.0294168
73	0x3f31f4b3	0.69514006
74	0x3def1030	0.116730094
75	0xbfe66d05	-1.800202
76	0x40270589	2.6097128
77	0x3f73bcba	0.9520985
78	0xbfdd410c	-1.7285476
79	0xc042133d	-3.0324242
80	0x400b9b73	2.1813629
81	0xbfd9fc4e	-1.7030122
82	0xbf223aab	-0.6337077
83	0x3edba8e4	0.4290229
84	0x3f1b55b3	0.6067764
85	0x3ffdce32	1.9828551
86	0xbee2b943	-0.44281968
87	0xbdeb462c	-0.114879936
88	0x3fd51da8	1.6649675
89	0xbdf3d622	-0.11906077
90	0x3fb0b22f	1.3804377
91	0x3fe1a487	1.7628335
92	0x3f59f7d0	0.85143757
93	0xbfc74c6a	-1.5570195
94	0x3ee00d48	0.43760133
95	0xbb02e0cb	-0.0019970413
96	0x400c921c	2.1964178
97	0x3e34c1b1	0.17652012
98	0x3f2f5822	0.68493855
99	0xbf66622a	-0.89993536
100	0x3ff619b7	1.9226598
101	0x3e8a779f	0.2704439
102	0x3fdc97f5	1.7233874
103	0xbf6b21c2	-0.91848385
104	0xbf780f05	-0.9689792
105	0xbfa087be	-1.2541425
106	0xbf271457	-0.6526541
107	0xbd470415	-0.048587877
108	0x3ec2656d	0.37968007
109	0x3fae7548	1.3629541
110	0x3f355e54	0.7084706
111	0xbf8a8106	-1.0820625
112	0x3fbb36de	1.4626119
113	0x404428d0	3.064991
114	0xbf85fb04	-1.0467229
115	0x404a79b7	3.163679
116	0xc0418449	-3.023699
117	0xbf973738	-1.1813726
118	0x4055ccbb	3.3406208
119	0x3e4cd4c9	0.20003046
120	0xbed6fcee	-0.41989845
121	0xbf751f2e	-0.957507
122	0x4027ceb8	2.621992
123	0x3fd2372d	1.6423088
124	0xbf3e3682	-0.7430192
125	0xc032748b	-2.7883632
126	0x3f69265b	0.9107415
127	0xc0088ed6	-2.133718
128	0xbff45a64	-1.9090085
129	0xbedf067c	-0.43559635
130	0xbf588d5c	-0.845907
131	0x3f097c2f	0.53705114
132	0xbd576814	-0.05258949
133	0xc063474b	-3.5512264
134	0x3f475eca	0.7787901
135	0x3fd217f3	1.6413559
136	0x3f55d601	0.8352967
137	0x3f69d462	0.91339695
138	0x3fa31da0	1.2743416
139	0x40089671	2.1341822
140	0xbfaf7110	-1.3706379
141	0x3eab0f35	0.3341004
142	0x3fc4faa1	1.5388986
143	0x3ffa08ee	1.9533975
144	0x40023579	2.0345137
145	0x3f45d6bd	0.7728079
146	0x3ddcaf64	0.107756406
147	0xbfc1a7cb	-1.5129331
148	0xbf4be2d2	-0.79642975
149	0x3e50bddc	0.20384926
150	0xc018c4d8	-2.3870144
151	0x40000f6c	2.0009413
152	0x3fa6bcec	1.3026404
153	0xbfb06b8a	-1.3782818
154	0x3f94fbcc	1.1639342
155	0x3fbac8a9	1.4592487
156	0xc01f40b4	-2.4883242
157	0x3f97e6fc	1.1867366
158	0x3fec7374	1.8472733
159	0xc004f566	-2.077478
160	0xbf683166	-0.90700376
161	0xbfc03036	-1.5014713
162	0x3f39349d	0.72345906
163	0x400ed5ad	2.2317917
164	0x4020050d	2.5003083
165	0xbfb29b66	-1.3953674
166	0xbffa9988	-1.9578104
167	0x409e64c9	4.949803
168	0xbf1cc8f3	-0.61244124
169	0xbf4b2789	-0.793572
170	0xbfdcf3dd	-1.7261921
171	0xbf10aac8	-0.5651059
172	0xc00e1d21	-2.220528
173	0xbf567fe8	-0.8378892
174	0x3f743c2c	0.95404315
175	0xbf48640e	-0.7827767
176	0x3f4b16fc	0.79331946
177	0x3f2355c9	0.6380277
178	0x3ef70692	0.482472
179	0x3dc77bf1	0.09740437
180	0x3fafd84a	1.3737881
181	0xbdad2c3c	-0.08455703
182	0xc039fbe8	-2.9060001
183	0x3f7d6ee8	0.98997355
184	0xbf8a7b18	-1.0818815
185	0xbfd41cc3	-1.6571277
186	0xc03476a5	-2.8197415
187	0xbfb6703e	-1.4253004
188	0xbd33df16	-0.043913923
189	0x3f24c785	0.6436694
190	0xbfe07282	-1.7534945
191	0xc00e79d4	-2.2261858
192	0x3f5de7eb	0.86682004
193	0xc0688ed7	-3.6337183
194	0x3fa8f8d5	1.3200938
195	0x3fd08ba3	1.6292614
196	0xc0174797	-2.3637445
197	0x3fe50b31	1.789404
198	0x3eebb3e6	0.4603569
199	0xc0331680	-2.7982483
200	0xbf3dbef4	-0.74119496
201	0x3fc4c736	1.5373294
202	0x3dc936ff	0.09824943
203	0xbff87560	-1.941082
204	0xbeafbcce	-0.34323734
205	0xbfd48d2e	-1.6605585
206	0xbf634255	-0.8877309
207	0xc08df631	-4.4363027
208	0x3fc70032	1.5546935
209	0xbf7ca0ac	-0.98682666
210	0xbfb9f05f	-1.452648
211	0x3d093799	0.033500288
212	0xbf068433	-0.5254547
213	0x3e39e7e9	0.18154873
214	0xbf4ec380	-0.8076706
215	0xc0362990	-2.8462868
216	0x3f60f98c	0.8788078
217	0x3efffea9	0.49998978
218	0xbf28a4db	-0.6587655
219	0x3f7a6089	0.9780355
220	0xbea5a036	-0.32348794
221	0xc00f86d2	-2.2426038
222	0x3eeed292	0.46645027
223	0x3f821f5f	1.0165824
224	0x3f1a9722	0.6038686
225	0xbe2d372a	-0.16915575
226	0xbdc625da	-0.09675188
227	0xbe0a7f12	-0.13525036
228	0x401acb0b	2.4186428
229	0xbf5f4892	-0.8722011
230	0x3fa8831f	1.3165015
231	0xbfc4b47b	-1.5367578
232	0xbeb3cd84	-0.35117733
233	0xbfa5570a	-1.2917187
234	0xbf145c9a	-0.579538
235	0xbf62801c	-0.8847673
236	0xbd84c963	-0.06483724
237	0x3eb78375	0.3584248
238	0xbfebc4aa	-1.8419392
239	0x3c27f40d	0.010251057
240	0x400c79cc	2.194934
241	0x3ffa2121	1.954136
242	0xbe9cf965	-0.30659023
243	0x40524331	3.285351
244	0xc0064a7b	-2.098296
245	0xbf4b9610	-0.7952585
246	0x3fc90946	1.5705955
247	0x40104b24	2.2545862
248	0x3f5a821e	0.85354793
249	0xbff7394c	-1.9314361
250	0x3f87cd0a	1.0609448
251	0x3fd6e141	1.6787492
252	0xbb8043f1	-0.0039143492
253	0xbfda2508	-1.7042551
254	0x3f3755f0	0.71615505
255	0xc063c826	-3.559091

fc.bias f4 [147]
0	0xc008d66a	-2.1380868
1	0xc01bb264	-2.432763
2	0xc00bd852	-2.1850781
3	0xbff8b8b3	-1.9431366
4	0xc0191e06	-2.3924575
5	0xc02e96c7	-2.7279527
6	0xc007b90c	-2.1206694
7	0xc0005f8e	-2.0058322
8	0xc0117eeb	-2.2733715
9	0xc00c4240	-2.1915436
10	0xc010cda9	-2.2625525
11	0xc022b5c8	-2.542345
12	0xc033bfd7	-2.808584
13	0xc026e1e4	-2.6075373
14	0xc007d503	-2.1223762
15	0xc01cd239	-2.450331
16	0xc005cf98	-2.0907955
17	0xc0168e83	-2.3524482
18	0xc020b0be	-2.5107875
19	0xc02954cc	-2.6458006
20	0xc02982a1	-2.648598
21	0xc010a533	-2.260083
22	0xc016e1da	-2.357535
23	0xc01d210c	-2.455142
24	0xc0052f30	-2.081005
25	0xc0194b49	-2.39522
26	0xc00e6150	-2.2246895
27	0xc01dcbc7	-2.4655626
28	0xc01e0bcb	-2.4694698
29	0xc01f8626	-2.4925628
30	0xbff187de	-1.8869588
31	0xc010dbdc	-2.2634192
32	0xc01a679e	-2.4125743
33	0xc0282229	-2.627085
34	0xbfd7d3d3	-1.6861519
35	0xc01dda96	-2.4664664
36	0xc01a256b	-2.4085338
37	0xc02c64c3	-2.69365
38	0xc0030be6	-2.0476012
39	0xc010bc13	-2.2614791
40	0xc029076e	-2.6410785
41	0xc01d7f96	-2.4609122
42	0xc005267c	-2.080474
43	0xc008c61c	-2.1370916
44	0xc007f900	-2.1245728
45	0xbff9c068	-1.9511843
46	0xc01d0df4	-2.4539766
47	0xc010f533	-2.2649658
48	0xc028eab7	-2.6393259
49	0xc020a5e5	-2.5101254
50	0xbfff7cd9	-1.9959975
51	0xc0132526	-2.2991424
52	0xc00d4f2d	-2.2079575
53	0xbfdd07af	-1.726797
54	0xc0089c0b	-2.134524
55	0xc02a50ac	-2.6611738
56	0xbfe27a4f	-1.7693576
57	0xc000c557	-2.0120447
58	0xc015b90e	-2.3394198
59	0xc01f501b	-2.4892642
60	0xc0149401	-2.3215334
61	0xc01fec9b	-2.4988163
62	0xc00b1f28	-2.1737766
63	0xc00e2d01	-2.2214968
64	0xc02d8b81	-2.7116396
65	0xc008cfe4	-2.1376886
66	0xbfd5fe3d	-1.6718212
67	0xc002e523	-2.0452354
68	0xc005dc0d	-2.0915558
69	0xc017a166	-2.369226
70	0xbff36a65	-1.9016844
71	0xc012bc2e	-2.2927356
72	0xbff758c7	-1.9323968
73	0xc0204a4e	-2.5045352
74	0xc0082c0b	-2.1276882
75	0xbffd8df0	-1.9808941
76	0xc010e159	-2.2637541
77	0xc0007c1f	-2.0075758
78	0xc0256e72	-2.584866
79	0xbff1da6b	-1.8894781
80	0xc00d3c57	-2.2068079
81	0xc007995d	-2.1187356
82	0xc0497f3e	-3.1483912
83	0xc04446d8	-3.066824
84	0xc0136ba5	-2.303445
85	0xc02dded3	-2.716725
86	0xc00cc78e	-2.1996799
87	0xbffe1878	-1.9851217
88	0xbff0f65f	-1.8825186
89	0xbffc92f6	-1.9732349
90	0xc0054a87	-2.0826738
91	0xc00bac78	-2.1824017
92	0xc012b30d	-2.2921784
93	0xc00d3703	-2.2064826
94	0xc00d53fd	-2.2082512
95	0xc013e0ab	-2.3105876
96	0xbfd94a27	-1.6975754
97	0xc001e9bb	-2.0298908
98	0xbfb78dd4	-1.4340158
99	0xc00fabec	-2.2448683
100	0xbffa6a3d	-1.9563671
101	0xc00341e0	-2.0508957
102	0xc01f3b7d	-2.4880059
103	0xc00cf4da	-2.2024446
104	0xc0068ff4	-2.1025362
105	0xc01e3eef	-2.4725912
106	0xc047eb82	-3.1237493
107	0xc0051784	-2.0795603
108	0xc014a218	-2.3223934
109	0xc031ef22	-2.7802205
110	0xc012d807	-2.2944353
111	0xc00f724e	-2.2413516
112	0xc00495ac	-2.0716352
113	0xc02d2500	-2.7053833
114	0xc03f04ef	-2.9846761
115	0xc008b258	-2.1358852
116	0xbfe607cb	-1.7971128
117	0xc02bcc63	-2.6843498
118	0xc02186c6	-2.523851
119	0xc009d43b	-2.1535785
120	0xc018ace1	-2.3855517
121	0xc030e051	-2.7636912
122	0xc0136245	-2.302873
123	0xc00f7949	-2.2417777
124	0xbff6d261	-1.9282953
125	0xc03086d0	-2.7582283
126	0xbff68ef3	-1.9262375
127	0xc012ae51	-2.2918894
128	0xc006e7c0	-2.107895
129	0xbfc9f571	-1.5778028
130	0xc01377a7	-2.304178
131	0xc0161ab4	-2.3453798
132	0xc03f828c	-2.992343
133	0xc04dd046	-3.215837
134	0xc0054a25	-2.0826504
135	0xbff16fd0	-1.8862247
136	0xc009635f	-2.1466901
137	0xc004f500	-2.0774536
138	0xc0117fb3	-2.2734191
139	0xc0281a1d	-2.6265938
140	0xc02733a9	-2.612528
141	0xc0025207	-2.0362566
142	0xbfc8ef78	-1.569808
143	0xbfc8c227	-1.568425
144	0xc025522a	-2.58314
145	0xc017a272	-2.3692899
146	0xc007cc72	-2.1218534
